_________________________________________________________________
Layer (type)                 Output Shape              Param #   
=================================================================
X (InputLayer)               (None, 3, 64, 64)         0         
_________________________________________________________________
conv1 (Conv2D)               (None, 8, 32, 32)         224       
_________________________________________________________________
batch_normalization_1 (Batch (None, 8, 32, 32)         128       
_________________________________________________________________
activation_1 (Activation)    (None, 8, 32, 32)         0         
_________________________________________________________________
conv2 (Conv2D)               (None, 16, 16, 16)        1168      
_________________________________________________________________
batch_normalization_2 (Batch (None, 16, 16, 16)        64        
_________________________________________________________________
activation_2 (Activation)    (None, 16, 16, 16)        0         
_________________________________________________________________
conv3 (Conv2D)               (None, 32, 8, 8)          4640      
_________________________________________________________________
batch_normalization_3 (Batch (None, 32, 8, 8)          32        
_________________________________________________________________
activation_3 (Activation)    (None, 32, 8, 8)          0         
_________________________________________________________________
conv4 (Conv2D)               (None, 64, 4, 4)          18496     
_________________________________________________________________
batch_normalization_4 (Batch (None, 64, 4, 4)          16        
_________________________________________________________________
activation_4 (Activation)    (None, 64, 4, 4)          0         
_________________________________________________________________
flatten (Flatten)            (None, 1024)              0         
_________________________________________________________________
fc_1 (Dense)                 (None, 512)               524800    
_________________________________________________________________
fc_2 (Dense)                 (None, 256)               131328    
_________________________________________________________________
fc_3 (Dense)                 (None, 128)               32896     
_________________________________________________________________
Y (Dense)                    (None, 5)                 645       
=================================================================
Total params: 714,437
Trainable params: 714,317
Non-trainable params: 120
_________________________________________________________________
None
#### Epoch-0 ####
#### Step-1 ####
tstate: [ 0.  1.]
action: 2
reward: -0.0390625
#### Step-2 ####
tstate: [ 0.  0.]
action: 3
reward: 0.0390625
#### Step-3 ####
tstate: [-1.  0.]
action: 1
…
